{"class_name": "Sequential", "config": {"name": "sequential_9", "layers": [{"class_name": "Conv3D", "config": {"name": "conv3d_26", "trainable": true, "batch_input_shape": [null, 19, 19, 19, 4], "dtype": "float32", "filters": 64, "kernel_size": [5, 5, 5], "strides": [1, 1, 1], "padding": "same", "data_format": "channels_last", "dilation_rate": [1, 1, 1], "activation": "relu", "use_bias": true, "kernel_initializer": {"class_name": "VarianceScaling", "config": {"scale": 1.0, "mode": "fan_avg", "distribution": "uniform", "seed": null}}, "bias_initializer": {"class_name": "Zeros", "config": {}}, "kernel_regularizer": null, "bias_regularizer": null, "activity_regularizer": null, "kernel_constraint": null, "bias_constraint": null}}, {"class_name": "Conv3D", "config": {"name": "conv3d_27", "trainable": true, "filters": 128, "kernel_size": [3, 3, 3], "strides": [1, 1, 1], "padding": "valid", "data_format": "channels_last", "dilation_rate": [1, 1, 1], "activation": "relu", "use_bias": true, "kernel_initializer": {"class_name": "VarianceScaling", "config": {"scale": 1.0, "mode": "fan_avg", "distribution": "uniform", "seed": null}}, "bias_initializer": {"class_name": "Zeros", "config": {}}, "kernel_regularizer": null, "bias_regularizer": null, "activity_regularizer": null, "kernel_constraint": null, "bias_constraint": null}}, {"class_name": "MaxPooling3D", "config": {"name": "max_pooling3d_15", "trainable": true, "pool_size": [2, 2, 2], "padding": "valid", "strides": [2, 2, 2], "data_format": "channels_last"}}, {"class_name": "Dropout", "config": {"name": "dropout_23", "trainable": true, "rate": 0.25, "noise_shape": null, "seed": null}}, {"class_name": "Conv3D", "config": {"name": "conv3d_28", "trainable": true, "filters": 256, "kernel_size": [3, 3, 3], "strides": [1, 1, 1], "padding": "valid", "data_format": "channels_last", "dilation_rate": [1, 1, 1], "activation": "relu", "use_bias": true, "kernel_initializer": {"class_name": "VarianceScaling", "config": {"scale": 1.0, "mode": "fan_avg", "distribution": "uniform", "seed": null}}, "bias_initializer": {"class_name": "Zeros", "config": {}}, "kernel_regularizer": null, "bias_regularizer": null, "activity_regularizer": null, "kernel_constraint": null, "bias_constraint": null}}, {"class_name": "MaxPooling3D", "config": {"name": "max_pooling3d_16", "trainable": true, "pool_size": [2, 2, 2], "padding": "valid", "strides": [2, 2, 2], "data_format": "channels_last"}}, {"class_name": "Dropout", "config": {"name": "dropout_24", "trainable": true, "rate": 0.25, "noise_shape": null, "seed": null}}, {"class_name": "Flatten", "config": {"name": "flatten_9", "trainable": true, "data_format": "channels_last"}}, {"class_name": "Dense", "config": {"name": "dense_20", "trainable": true, "units": 1024, "activation": "relu", "use_bias": true, "kernel_initializer": {"class_name": "VarianceScaling", "config": {"scale": 1.0, "mode": "fan_avg", "distribution": "uniform", "seed": null}}, "bias_initializer": {"class_name": "Zeros", "config": {}}, "kernel_regularizer": null, "bias_regularizer": null, "activity_regularizer": null, "kernel_constraint": null, "bias_constraint": null}}, {"class_name": "Dropout", "config": {"name": "dropout_25", "trainable": true, "rate": 0.5, "noise_shape": null, "seed": null}}, {"class_name": "Dense", "config": {"name": "dense_21", "trainable": true, "units": 2, "activation": "softmax", "use_bias": true, "kernel_initializer": {"class_name": "VarianceScaling", "config": {"scale": 1.0, "mode": "fan_avg", "distribution": "uniform", "seed": null}}, "bias_initializer": {"class_name": "Zeros", "config": {}}, "kernel_regularizer": null, "bias_regularizer": null, "activity_regularizer": null, "kernel_constraint": null, "bias_constraint": null}}]}, "keras_version": "2.2.4", "backend": "tensorflow"}